data/models/checkpoint_model.pt (torch, 160863 bytes, 4 tensors)

model.0.weight f4 [50, 784]
00000000: d752 413c 7113 f03c 0024 8e39 37f2 13bc
00000010: 9c01 f3bc f5b0 88bc 6e43 2039 d5e9 f0bc
00000020: 17f6 123c b864 f13c 4662 0b3d bcba 69bc
00000030: bd62 4abc 9c7a 0f3c e8b7 073d 9360 0d3c
00000040: 1cea 7b3c 454e 4a3c 358b a93c 6c3e ef3c
00000050: d367 f83b 9728 843c 4a1a bb39 a041 293c
00000060: a350 983c 6ea4 3dbb c5c3 ee3c 8af2 b8bc
00000070: a502 323b 538a 973c 5390 8dbc aaf0 c83c
00000080: 2aa1 a7bc 59d8 4ebb a818 cc3c 2158 5dbc
00000090: afb9 623c b985 9ebc 5b8e d9bc a7ea f43c
000000a0: 7ed2 183d 5b65 4b3a 6322 81bc 5ff3 7b3b
000000b0: 91ff 903c b1f9 54bc edf8 1d3d 734c 80bc
000000c0: efd7 b13c 8dcb b6bc 0f12 9b3c e7e1 9bba
000000d0: d56f f43c 137c 2b3b f397 363c f55f dabc
000000e0: f3d0 5d3c 5310 843c 6ede aa3a 53de 9dbb
000000f0: d1ab 5ebc 9c7e 3abc 60f7 b9bc 49a5 4d3c
00000100: c6d8 ef3c d435 81bc a802 8e3b 6707 aabc
00000110: 8acc 393c f89e 8d3d 561f dd3d 23a8 9f3d
00000120: 00df f13d 1c92 403d af97 8d3d 1883 363d
00000130: cf23 a23c e339 053c 3a8c 1d3d 43c2 773b
00000140: 2cfb 81bc 1975 9fbc 0a99 bdbc be10 dabc
00000150: fa13 b3bc 18aa 76bc dfde f7bc 050a 24bc
00000160: 0020 60bc 846c aebc bc93 9c3b f21f 1f3d
00000170: 3430 a83b 869e 96bb 73a0 0f3d ad88 8abb
00000180: d7cf 5a3c 8e18 833d 4ea7 ec3d b592 fe3d
00000190: 0537 073e 6d79 3f3c 6766 5b3d c33d b23d
000001a0: 3176 9c3c 4006 193d b2b4 303d 30e3 1d3c
000001b0: 51dc 63bb 552e 16bc ed6d 5abc 5832 ee3c
000001c0: a50a 623c 84e8 0e3c 7533 7cbc 4cba d5bb
000001d0: 74c2 cabc d13c 87bc d120 f03c 3171 da3a
000001e0: 69b9 f83c beba bbbc 6ee4 393d a8ee 853b
000001f0: 29ff 92bc 9e75 e53c eed5 013e 7998 e53d
00000200: 4131 9d3d 1905 b13c e519 013e 64b2 c23d
00000210: eb5b 9f3d 9961 e53d 65cc 683c 3a7e 633d
00000220: 4544 923c 11ce b2bc 547d 8bbc 6eb0 ee3c
00000230: ae04 113d 4a4e 5cba 7f98 9e3c 3d4f cdb9
00000240: 1494 623c 92c2 8a3c 21af 833c 1cb6 89bc
00000250: 156b a43c 2245 20bc bb7b 86bb 6ab7 4f3d
00000260: 597b c43b 9389 1d3e ceaa 143e be7b a03d
00000270: f7c6 df3d a936 a03d 5518 233d 62a7 373d
00000280: 3975 c4bc 89f5 cfbc 155e 873d 8f25 133d
00000290: e378 983d 6f7a dfbc cddc aebb 7448 e8bc
000002a0: 7550 e7bc f3f5 1dbc e17b f93c 2e74 ea3c
000002b0: e515 d13c a613 253d 247d 153d f38f e7bc
000002c0: 3335 40bc 7b44 24bd 5b4b 87bd 068b e13c
000002d0: 337f 8f3d 69b7 003e 619f 313e e7ba 0b3e
000002e0: fe87 e1bd c272 26be 6d6f 1cbe c004 2cbe
000002f0: 5841 37be 0d98 e7bd 3fb6 6abd a35c e43c
00000300: e212 f2bb 1620 933b 6b92 b33c a2f0 9cbc
00000310: 4a5a 1f3a 2c1c 053d edfc 02bc 0941 00bd
00000320: 7828 b43c 0072 333c 754b c23c c3d3 d2bc
00000330: 250f c9bc ead4 5ebd 22b7 75bd be9c b03c
00000340: 0efe 0d3d 77b7 843c 3cce f43d a28f 82bc
00000350: 25c4 56be 8e61 89be 123e a3be 6967 98be
00000360: a180 8ebe 16fb 5fbe a87f a5bd fd04 b1bd
00000370: 31da b7bc 287f cebc 999b 10bd 5bb2 863c
00000380: 6e35 0b3b ee1e 553b 766f 43bc ec27 743c
00000390: deda 0fbd 26f1 313d eb12 b03c 5632 4bbd
000003a0: 0aa7 d4bd 741b 84bd a0c4 20be 3b7b 53bc
000003b0: 35dd 533d ef29 b3bc e7cb 8cbd d02a a4bd
000003c0: 6571 8cbe 9a25 a4be 2a06 c3be 58ab a6be
000003d0: 2a5d 6cbe 4033 45be 625a e5bd 2dc2 f4bc
000003e0: 9201 c5bc d9bc b13c ccc8 27bd 8998 f2bc
000003f0: ccb8 2e3c 5577 983c 7976 b1bb 00f2 a338
0.011799536 0.029306145 0.00027111173 -0.0090299165 -0.029663853 -0.016685942 0.00015283909 -0.029408375
0.008969805 0.029466972 0.034029268 -0.014265712 -0.012352643 0.00875726 0.03313437 0.008628982
0.01537564 0.0123477625 0.020696262 0.02920457 0.007580736 0.016132636 0.00035687006 0.010330588
0.018593138 -0.002893712 0.029146085 -0.02257659 0.002716222 0.018498575 -0.017280733 0.02452882
-0.020462591 -0.0031562059 0.0249141 -0.013509781 0.013838216 -0.019350873 -0.026557138 0.029897047
0.037310116 0.00077589386 -0.015763467 0.003844462 0.017699989 -0.012998984 0.038567472 -0.015661454
0.02170941 -0.022313857 0.01892951 -0.0011892886 0.029838482 0.0026166483 0.011144626 -0.026657084
0.013538587 0.016121065 0.001303626 -0.004817763 -0.013590769 -0.011382725 -0.022700965 0.012551614
0.02927817 -0.015772738 0.0043338127 -0.020755483 0.01134027 0.069150865 0.107969925 0.077957414
0.11810112 0.04701434 0.06913697 0.044558614 0.019792465 0.008131477 0.03846381 0.0037804998
-0.015866838 -0.019465016 -0.023144264 -0.026619311 -0.021860112 -0.015055202 -0.03025764 -0.0100121545
-0.013679504 -0.021291979 0.0047783535 0.038848825 0.0051326994 -0.004596534 0.035065126 -0.004227719
0.013355217 0.06401168 0.11555348 0.12430326 0.13204582 0.011686665 0.053564455 0.08703186
0.019099327 0.037359476 0.043141074 0.009636685 -0.003476877 -0.00916632 -0.013331872 0.02907674
0.013796483 0.008722428 -0.015393128 -0.0065224525 -0.024750926 -0.016508492 0.029312523 0.0016665814
0.030361848 -0.022916194 0.045383863 0.004087288 -0.017943935 0.028010186 0.12679264 0.112107225
0.0767541 0.021608876 0.12607534 0.095066816 0.07781204 0.11200256 0.014208888 0.0555403
0.01785482 -0.021826776 -0.017027535 0.029136863 0.035404854 -0.0008404 0.019359825 -0.00039159684
0.01382925 0.016938481 0.016074719 -0.01681047 0.020070592 -0.009782108 -0.0041041053 0.050712027
0.0059961495 0.15384512 0.14518282 0.07836102 0.109266214 0.078229256 0.039818127 0.044837363
-0.023981677 -0.025385635 0.066097416 0.03592449 0.07444932 -0.02728006 -0.00533638 -0.02835486
-0.028236607 -0.009641158 0.030454578 0.028619852 0.025523135 0.04030194 0.036496297 -0.028266883
-0.011731434 -0.04010437 -0.0660617 0.027532112 0.07006683 0.12569965 0.17345954 0.13645516
-0.110122666 -0.16254714 -0.1527688 -0.16798687 -0.1789602 -0.11308298 -0.05730271 0.027876204
-0.007387505 0.004489909 0.021920403 -0.019157711 0.0006078823 0.03249757 -0.0079948725 -0.031312022
0.021991953 0.010952473 0.023717621 -0.025735741 -0.024543354 -0.05440227 -0.059989102 0.021559115
0.034666114 0.016200764 0.119533986 -0.01593763 -0.2097326 -0.2683224 -0.31883293 -0.29766396
-0.2783251 -0.21873125 -0.08080989 -0.086435296 -0.022442909 -0.025207117 -0.03530464 0.016442468
0.0021241563 0.0032519656 -0.01192843 0.014902096 -0.035120837 0.043442868 0.021493396 -0.04960855
-0.10383423 -0.06450549 -0.15700006 -0.012907798 0.05172463 -0.021870581 -0.06874829 -0.08015978
-0.27430263 -0.32059938 -0.3809064 -0.325526 -0.23082414 -0.19257832 -0.1119888 -0.029877746
-0.0240486 0.021696495 -0.04096298 -0.02961375 0.010664176 0.01861159 -0.0054157344 7.817522e-05

model.0.bias f4 [50]
00000000: 3f3d a03d 93f5 f83c fc36 983e a3e4 953d
00000010: bd44 243f 7a0b 3abd 7b82 21be ae62 423e
00000020: f2d4 253e d967 2cbe 83df 833e 7f81 ae3d
00000030: b8f0 32bd c356 a13e 0a48 cfbc 7ceb f0bc
00000040: c81f fb3d dbaf b03d f120 d73c 94c0 abbd
00000050: 1803 b4be 00c8 f3bd 0def 83be 33d8 28bd
00000060: 6275 1abd 3ea2 803e e81f 873e 8ee5 36bd
00000070: 98e6 3abe b439 32be 8a7b 84be acf8 243c
00000080: 36cc c4bd 6aa3 05bd c2cc 24be f822 31bd
00000090: 12c3 3abd f167 1c3c 4d12 92bb 4e06 5a3e
000000a0: ff22 afbe 3b23 98bd 9d8f b53e 6137 6dbe
000000b0: 478c 6a3d f5a2 9ebd 381d ebbd dfca bb3d
000000c0: f63a d13d d2e9 a23e
0.07824182 0.030390536 0.2972945 0.073189996 0.64167386 -0.0454211 -0.1577243 0.18982956
0.16194513 -0.1683649 0.25756463 0.08520793 -0.0436866 0.31511506 -0.025302906 -0.029409163
0.12261921 0.08627292 0.026260825 -0.08386341 -0.3515861 -0.11903381 -0.2576832 -0.04122181
-0.0377096 0.2512378 0.2639153 -0.044652514 -0.18252027 -0.17404824 -0.25875503 0.010069054
-0.09609263 -0.032626547 -0.16093734 -0.04324624 -0.04559619 0.009546266 -0.004457748 0.21291468
-0.34206387 -0.07428595 0.3546113 -0.23165657 0.057262685 -0.07745925 -0.114801824 0.09169554
0.10216324 0.31819016

model.2.weight f4 [10, 50]
00000000: ea63 ebbe a210 2f3f 1716 58be 79b4 0fbd
00000010: d231 94be 714e 6bbf b85d 5e3f 1afa 393e
00000020: 5633 e4be 0c82 b43d e80b 00bf 3c27 0bbf
00000030: 98c8 003e 7433 a1be 9ec7 ec3d dc60 383e
00000040: d98d d9be c500 9d3e 80cf 2c3e 7270 1abc
00000050: 21e9 f5be d7ae 7cbf 380b e43e fca5 c13d
00000060: 4527 013f 6f9f 1a3f 3790 c73e 80fd d7bd
00000070: 6434 7c3f 9fcf 31bf abc0 47bf cd11 443f
00000080: 9abf cdbd 97c7 dbbd 32ba 4a3e 3fb7 3ebe
00000090: 9c6a b33d 897b 063e f16d d6be f10b 9fbd
000000a0: 488f 293d 15c7 183f 8c1e 0e3f 631b 853e
000000b0: f9ae b1bd d9b5 8dbe 290f bdbd dfac 4d3d
000000c0: 9877 a63c f18c 4cbe ee2e e33e 613e dbbe
000000d0: cb37 c13e 9fc4 ed3e 8527 c2be 8548 65be
000000e0: 64e6 cebe 366a 04be 1764 2e3f c2a9 1b3f
000000f0: 6f8f 093e adc2 dd3e 2b10 8f3d 1657 82be
00000100: c5bb 94be 0fa3 5abd e300 6b3f cb77 d0be
00000110: dc6c fb3e fde7 833f 800f 8cbd 08e2 193f
00000120: a08e 17be e971 2dbe 4d76 16bf ddbf 9c3e
00000130: 76ae b23e a4d9 4d3c a441 acbe bf0a 0bbf
00000140: ffe4 be3e 7801 20bf ef3f 9bbd 181e c6be
00000150: d24e 43be 1552 9a3d 5208 4dbe 5786 3cbe
00000160: 84c2 253f 785c 5f3f fee6 85bd d8a5 9cbe
00000170: 1fe1 abbd 27d9 f7be 231e 21bc 4f3b 3f3f
00000180: e972 45be ba00 fb3c 9dda 63bf e482 a6be
00000190: 284d b8be b145 b4be 7492 adbf c068 3a3e
000001a0: ab5e 973f 57de 02bf d2d0 523d f697 103f
000001b0: a24e 063f 4f2f de3e 35a1 8abd 6e3b debe
000001c0: d2a3 ad3e 5a12 17bf 23b8 813d 2032 043e
000001d0: 8777 ce3e 1a8e 0c3e 2ad6 063f d4ff 02bf
000001e0: eeda 223f 4156 67be 13d0 183f b67a ae3e
000001f0: 67be 2e3e b227 94be 94f0 463f d4c9 533f
00000200: 2f10 02bf a4a6 b6be 858d 733d e460 9d3e
00000210: 337a 49bf 983a 1bbf a15d 82bf 11d2 103f
00000220: a010 5ebd 6e41 ee3e 18c0 f53e c16d 8d3e
00000230: 30cd 323e a49d bebe 0d3b 8cbe 860b 2f3e
00000240: bbc3 233e beb2 163f cc25 1e3f 5420 efbd
00000250: ab8e 9c3d cf65 7fbe 6ae0 e13c 1837 23bf
00000260: c6d1 88be 13cb 193f 4881 693d 6b62 9cbc
00000270: 150b 893e 2940 093e ed17 0d3c a865 c9be
00000280: e748 573f 94fc fcbe bd30 00bf 801b c9bd
00000290: 3f1f ca3e dce4 3d3d 6fcc 933e fd03 9bbf
000002a0: 755a 68be 2653 bfbe 40b1 8c3f 6bca a93e
000002b0: cc67 f8be 1382 4fbe b14b 4c3f 544d e13b
000002c0: b29f 9abd 6c02 5b3f 7d8e b2be 8320 2f3f
000002d0: bc95 6abe d71c 51be 90ab 153f 9d05 c5be
000002e0: 90a9 38bf 62cf a3be 4ff4 363e 630d c0be
000002f0: 6e85 3e3e 097a 31bf 643e 0b3f 6436 de3e
00000300: 8b2e c9be 7da4 873f fa5b febe 0d63 a13e
00000310: 8685 373e 38c4 8b3f aa9d 72be 9ea5 2fbd
00000320: a0fb bb3d 7c49 b33e e24b 593d f0e8 cb3e
00000330: 7a7c 73bd 4c8c 463f 183f 0fbf 4427 293f
00000340: 4801 dcbd 5780 d23e f3f4 d5be f062 813e
00000350: 5e94 2d3f c35f 5c3f 46df 36bf c048 c73d
00000360: c37f 2d3f e4e5 523f 6445 4dbd f266 b73d
00000370: 2b3f 39bf 771f f03e fe81 d43e 8c1d 33bf
00000380: d70d 9fbf 6fa8 eebe cd3f b6be eed0 2bbf
00000390: dcfa babd e7b9 e53e 9513 3cbf 59f3 3ebf
000003a0: 2268 debe 3e35 473f 7948 b73e 36c5 c63c
000003b0: 524d 56be c9e8 263f e68f f6be df38 0f3f
000003c0: c698 723d 4074 1b3e 2b65 6bbf 6c1c 71be
000003d0: f22f ea3e f52b 873e b28c 25bf b4aa 2dbf
000003e0: 02f6 22bf 3b5e b4bf 1aad 183f c3c3 073f
000003f0: 45a2 7e3e 8b88 debe d4ab b83e 527e 973e
-0.45974666 0.68384755 -0.21102177 -0.03508422 -0.2894426 -0.9191657 0.86861753 0.18161812
-0.44570416 0.08813867 -0.5001817 -0.5435674 0.1257652 -0.31484568 0.115615115 0.18005699
-0.42491034 0.3066465 0.1687603 -0.009426223 -0.48029426 -0.98704284 0.4453981 0.09455487
0.50450546 0.60399526 0.38977215 -0.10546398 0.9851744 -0.6945743 -0.78028363 0.7658966
-0.10046311 -0.10731428 0.1979759 -0.1862459 0.087605685 0.13133062 -0.41880754 -0.077659495
0.04139641 0.59678775 0.5551536 0.25997457 -0.086759515 -0.276778 -0.09231407 0.05021369
0.020320699 -0.1997564 0.44371742 -0.4282103 0.3773788 0.46439072 -0.37920776 -0.22390945
-0.4041015 -0.12931141 0.68121475 0.60805905 0.13433622 0.43312588 0.06985506 -0.25457066
-0.29049507 -0.05337816 0.9179823 -0.40716395 0.4910649 1.0305172 -0.06838894 0.6011052
-0.14800501 -0.16937985 -0.5877426 0.3061513 0.34898728 0.012564097 -0.3364383 -0.5431327
0.37284085 -0.6250224 -0.07580554 -0.38694835 -0.19073036 0.07535187 -0.20022705 -0.18410622
0.6474993 0.8725047 -0.06538199 -0.3059528 -0.08392548 -0.48407862 -0.009833845 0.7469987
-0.19282116 0.030639995 -0.8900545 -0.32521737 -0.35996366 -0.3520942 -1.3560319 0.18204021
1.1825765 -0.51120514 0.051468678 0.56481874 0.52463734 0.4339547 -0.06769029 -0.43404716
0.33914047 -0.5901238 0.063339494 0.12909746 0.40325567 0.13726082 0.5267054 -0.5117161
0.6361531 -0.22591497 0.59692496 0.34077996 0.1706482 -0.28936535 0.77710843 0.8272984
-0.50805944 -0.35674012 0.059461135 0.30737984 -0.78702086 -0.6063628 -1.0184823 0.56570536
-0.054215074 0.46534294 0.47998118 0.27622798 0.17461085 -0.37229645 -0.27388802 0.1709424
0.15992634 0.5886649 0.61776423 -0.11676088 0.07644399 -0.2494118 0.02757283 -0.6375594
-0.26722544 0.6007549 0.057008058 -0.019089898 0.26766267 0.13403381 0.008611661 -0.3933537
0.84095615 -0.49411452 -0.5007437 -0.09819698 0.39476964 0.046360835 0.28866908 -1.2110592
-0.22690757 -0.37368125 1.0991592 0.33162245 -0.4851669 -0.20264463 0.79802996 0.0068756733
-0.07549991 0.8555057 -0.34874335 0.68408984 -0.22908682 -0.20421158 0.5846491 -0.38480845
-0.7213373 -0.31994158 0.17866634 -0.37510213 0.18605587 -0.69326836 0.54392076 0.43400872
-0.39293322 1.0597073 -0.49679548 0.31520882 0.17922029 1.0919256 -0.23692957 -0.042882554
0.09178853 0.35017002 0.053050883 0.39826155 -0.059444882 0.77557826 -0.5595565 0.6607554
-0.10742432 0.4111354 -0.41788444 0.25270796 0.67804515 0.8608362 -0.7143444 0.09730673
0.67773074 0.82382035 -0.050115004 0.08955182 -0.7236201 0.46899006 0.41505426 -0.6996696
-1.2426099 -0.4661288 -0.3559555 -0.67115676 -0.09129879 0.44868395 -0.7346738 -0.7459007
-0.43438822 0.77815616 0.3579748 0.02426396 -0.20927933 0.6519895 -0.4815666 0.55946153
0.059227727 0.15181065 -0.91951245 -0.23545998 0.45739704 0.26400724 -0.6466781 -0.678386
-0.6365663 -1.4091257 0.5963913 0.53033084 0.24866588 -0.4346355 0.36068594 0.29588562

model.2.bias f4 [10]
00000000: 6d0d 77be 98c3 0c3d 99ef 99be 9333 e9bd
00000010: fe70 173e b69d 0d3e d472 16be 44f8 e2be
00000020: 2ee0 343f eeee e4bc
-0.24126215 0.03436622 -0.3006561 -0.1138679 0.14789197 0.13829693 -0.14692241 -0.44330037
0.7065457 -0.027945962
